pretrained_models/sepformer-whamr-enhancement/decoder.ckpt (torch, 17272 bytes, 1 tensors)

weight f4 [256, 1, 16]
00000000: aaef cabd 6b3b 19be 6d29 32be 7c51 34be
00000010: 06ac 3ebe 92b9 58be 1346 8abe 6962 c1be
00000020: 3f61 cabe 57f5 d1be fdff d5be ab61 cfbe
00000030: b677 b7be 96cf 91be 89b6 48be a77b b7bd
00000040: 084b 94bd 17d0 e53d 58c6 81bd 6b29 7ebd
00000050: 9152 703e df4d b8be 60f7 8f3e 08de f63c
00000060: 0bb5 0ebf 31c8 743f 223a 6dbf 2247 e73e
00000070: 70fa 1d3e be98 0ebf 85f9 173f fabf b3be
00000080: b0f9 3abe ee10 41be 2f7e eebc 55e9 b93d
00000090: a17c d13d eeee bcbc 96e1 3bbe f523 15be
000000a0: 463f 5b3e 3ac9 b33d a6ad 293c f998 003d
000000b0: ef7b 5dbc d029 083d 8473 603e 07b9 8c3e
000000c0: 8d22 e93d 45ae 5c3e dd32 a53e 2df0 cf3e
000000d0: f952 d73e 198e a73e 01a1 123e b39d a8bd
000000e0: fc6f 77be aeb5 9cbe 54e1 8ebe 8d42 57be
000000f0: bb05 01be 86d5 6fbd e63b 78bc 2ee9 f83b
00000100: 5894 19bd f940 e7bd 7fb0 10be 83c2 e3bc
00000110: ec13 373e 6499 a33e 2e78 813e 77fb d2bd
00000120: 7d9b f1be 4f96 e5be 260d 90bd ef2b af3e
00000130: 49d0 dc3e 86a2 343e 1b36 49be 100d 8cbe
00000140: 5d55 eebd 3577 5abe 0bbe 8cbe 837d 9abe
00000150: 960b adbe e3ed abbe 2a85 87be f059 3abe
00000160: 8d52 c0bd 359b 3ebc d91b 943d e194 7b3d
00000170: f3db 2a3d 6d95 8e3d 3ca9 a23d eaad 893d
00000180: dfe0 3f3e 0ee9 81be e7b5 c03e a129 0fbf
00000190: 316d 533f 72a8 81bf 7b67 7c3f 4d52 25bf
000001a0: f882 0d3e f2e7 043e 7eb6 92be f233 ce3e
000001b0: 8ff9 e8be 6cc9 d63e 697c 9abe 8dab 3d3e
000001c0: 63ca b5bd 081c 09be cb30 00be 256e 59bd
000001d0: e1ff 5d3c 3c12 303c 6318 a2bd 0758 88be
000001e0: 756d c3be 2fca f0be 6c1b b2be d5df 3ebe
000001f0: 42b3 cabc b20c 483e a2e7 9e3e 681d 603e
00000200: b52d 833d 32f8 92bd 31a0 253c e723 333d
00000210: 1ea2 16bd 257b 5cbc 4a04 e03d b044 43bd
00000220: ea61 88bd ac83 84bd 70c4 663e 9d1a 5bbe
00000230: aecd 2a3e 0813 cfbe fe98 403f 0b8b 33bf
00000240: 8e83 c7bc 6695 95ba e93a a33d d328 9d3d
00000250: b4b4 18be c576 63be b873 043e ce0a ca3e
00000260: 0424 563d 8b37 dfbe bf6c 95be c123 983e
00000270: 936b c43e 9bbe c2bd 38fb 99be cf9b ddbc
00000280: fa53 99bc e60d e83d 2a1c 58bd f82f 73be
00000290: dcf8 ca3e 5905 09be 4249 d0be aa93 333f
000002a0: 647c e7be 5090 74be a0d8 1c3f e8f0 d0be
000002b0: 9bdc 0abe e5e3 043f a06c e1be fb31 8b3d
000002c0: 51b7 d33d 66ae 313e ad6c 3a3e 3d24 113e
000002d0: 71ed 413c 2e5b 14be b0e4 8dbe 45f7 b0be
000002e0: 41b0 b0be 109a a3be f263 83be f814 16be
000002f0: 9120 d1bc 1c3a 9a3d 1cd3 353e 9099 183e
00000300: f0a5 403e c484 873e 0f76 733e 4721 c13d
00000310: f8f6 05bd 76f7 21be 872d a5be ce07 acbe
00000320: 2351 9dbe 2d63 b6bd d96a c43d 2727 993e
00000330: 4a4c b23e 81f7 483e fe77 673d b054 47bc
00000340: 8bde b2bd adaf 9dbd f530 f5bc dad9 d83c
00000350: cb17 723d 199d a83b ed88 d3bd 31ce bc3c
00000360: ce21 6b3e ef4c a4bd 1ee7 4ebe 4374 503d
00000370: 02c0 903e cac3 393e b450 83bb b733 6dbd
00000380: 0b27 603d a10d eb3d 999e e13d 6f52 123e
00000390: 82e2 1a3e 1c2e 4f3e d93a 913e f3f7 893e
000003a0: 51ff 773e c002 8e3e a4c1 623e 5c7b 013e
000003b0: a4f3 a03d be64 533d b90a 23bb e8ce f2bc
000003c0: f6dc 4e3d 9b42 c63d ed02 163e 39cf 413e
000003d0: 3393 663e 5202 7e3e 1ec7 883e 528b a63e
000003e0: 71c6 a83e 8597 883e 460e 793e d483 693e
000003f0: e2db 323e 6898 093e dbe1 c33d 71a9 4b3d
-0.099089935 -0.14964072 -0.17398615 -0.17609209 -0.18620309 -0.2116454 -0.27006587 -0.37770393
-0.39527318 -0.41007492 -0.41796866 -0.40504202 -0.3583352 -0.28478688 -0.19600882 -0.08959132
-0.072408736 0.112213306 -0.06336659 -0.062051218 0.23468997 -0.3599691 0.2811842 0.03013517
-0.55745 0.9561797 -0.9266683 0.45171458 0.15427566 -0.55701816 0.5936511 -0.35107404
-0.1825931 -0.18854114 -0.029112903 0.09077708 0.10228849 -0.02306315 -0.18347773 -0.14564498
0.21410856 0.08778615 0.010356342 0.031395886 -0.013518318 0.033243 0.21919066 0.27484915
0.11383543 0.21550854 0.32265368 0.40612927 0.4205549 0.327256 0.1431923 -0.08233204
-0.24163812 -0.3060736 -0.27906287 -0.21021481 -0.12599842 -0.05855324 -0.015151 0.0075961566
-0.037494987 -0.112916894 -0.14129828 -0.027802711 0.17878693 0.31952965 0.25287002 -0.10301869
-0.4718894 -0.4484124 -0.07033758 0.34213206 0.4312766 0.17640123 -0.19649546 -0.27353716
-0.116373755 -0.21334536 -0.2748874 -0.30173883 -0.33797902 -0.3357993 -0.26468784 -0.18198371
-0.09390745 -0.011633684 0.07231874 0.06142128 0.041713666 0.069620945 0.07942435 0.067226246
0.18738125 -0.2537312 0.3763878 -0.55922896 0.8258849 -1.012953 0.985954 -0.64578706
0.13819492 0.12979105 -0.28654855 0.40274006 -0.45502898 0.41950548 -0.30173042 0.18522473
-0.08876493 -0.133896 -0.12518613 -0.053083558 0.013549776 0.010746535 -0.07914808 -0.2662966
-0.38169447 -0.47029254 -0.34786546 -0.18640073 -0.02474368 0.19536093 0.31036097 0.21886218
0.06405202 -0.07176246 0.010108993 0.04373541 -0.0367757 -0.013457094 0.10938318 -0.047672927
-0.066593006 -0.06470427 0.22535872 -0.21396871 0.16680023 -0.40444207 0.7523345 -0.7013404
-0.024354722 -0.0011412322 0.079702206 0.07673802 -0.14912683 -0.22213276 0.12934768 0.39461368
0.05228044 -0.43597063 -0.2918453 0.29714778 0.38363323 -0.09509011 -0.30074477 -0.027051834
-0.018716801 0.11330776 -0.052761234 -0.23748767 0.3964299 -0.13380946 -0.4068089 0.7014719
-0.4521209 -0.23883176 0.61268044 -0.40808797 -0.13560717 0.5191024 -0.44028187 0.067966424
0.10337699 0.17351684 0.18205519 0.1417398 0.011836396 -0.14487907 -0.27713537 -0.34563652
-0.3450947 -0.31953478 -0.2566219 -0.14656436 -0.025528224 0.07530615 0.17756313 0.1490233
0.188133 0.2646848 0.23775505 0.09430175 -0.03270623 -0.15817055 -0.32261297 -0.33599705
-0.30725965 -0.08905635 0.09590692 0.29912683 0.3482383 0.19625665 0.056510918 -0.012166187
-0.08733853 -0.07699523 -0.029930571 0.026471067 0.059104722 0.0051456806 -0.10328851 0.023047538
0.22962114 -0.080224864 -0.20205352 0.050892126 0.2827149 0.18141094 -0.0040074233 -0.057910647
0.054724734 0.11477209 0.11016578 0.14289258 0.15125468 0.20232433 0.2836521 0.26946983
0.24218489 0.27736473 0.2214418 0.12644714 0.07858971 0.051609747 -0.0024878217 -0.029639676
0.050503694 0.09680673 0.14649554 0.18926705 0.2251709 0.24805573 0.26714414 0.32528168
0.329639 0.266781 0.24321851 0.22804195 0.17466691 0.13437045 0.09564563 0.04972214
