pretrained_models/sepformer-whamr-enhancement/encoder.ckpt (torch, 17272 bytes, 1 tensors)

conv1d.weight f4 [256, 1, 16]
0	0x3d9c0c9f	0.07619595
1	0x3e5120b2	0.20422629
2	0x3dd3b752	0.103377
3	0x3e6ec97b	0.23319046
4	0x3e12ad3b	0.14323895
5	0x3e55b639	0.20870294
6	0x3e394631	0.18093182
7	0x3e2b2ae5	0.16715582
8	0x3e120779	0.14260663
9	0x3e4e14e9	0.20125164
10	0x3e27fbca	0.16404644
11	0x3e30c68c	0.1726324
12	0x3e53acfb	0.20671456
13	0x3dd4be27	0.10387831
14	0x3e3add71	0.18248536
15	0x3dd6019f	0.10449528
16	0x3de7f5fb	0.11326214
17	0xbe3db3d3	-0.18525629
18	0x3d359c91	0.044338766
19	0x3e639ff5	0.22228988
20	0xbee457a2	-0.4459811
21	0x3effe9fc	0.49983203
22	0xbea07c2b	-0.31344733
23	0xbd25151e	-0.040303342
24	0x3eafb9ad	0.34321347
25	0xbed00758	-0.40630603
26	0x3e685096	0.22686991
27	0x3d4adf27	0.04952922
28	0xbe83f8a9	-0.2577565
29	0x3e9f2824	0.31085312
30	0xbe5e128c	-0.21686763
31	0x3d967d04	0.073480636
32	0x3ea4756f	0.32120845
33	0x3cf8bfae	0.030364837
34	0xbcc68975	-0.024235466
35	0xbdec6e5f	-0.11544489
36	0xbd09e6cc	-0.03366737
37	0xbe02d966	-0.12778243
38	0xbd3cae2a	-0.046064533
39	0xbd9316cf	-0.07182085
40	0xbc5688b6	-0.013094118
41	0xbd817560	-0.06321216
42	0xbda964d0	-0.082711816
43	0xbcdc9576	-0.026926737
44	0xbe0fad33	-0.14030914
45	0xbbee38a7	-0.007269937
46	0xbd88e231	-0.066837676
47	0x3d9c98a2	0.076463
48	0xbe571d8e	-0.21007368
49	0xbdfe0859	-0.12403936
50	0xbdbfce48	-0.09365517
51	0xbe0ebecb	-0.13939969
52	0xbe17a9e3	-0.148109
53	0xbe09b0d8	-0.13446367
54	0xbe1db0e0	-0.15399504
55	0xbe358231	-0.17725445
56	0xbe37eff5	-0.1796263
57	0xbe198cc3	-0.14995103
58	0xbe5412f6	-0.20710358
59	0xbddec2f7	-0.1087703
60	0xbe11791e	-0.14206359
61	0xbde6533b	-0.11246344
62	0xbe171e33	-0.14757614
63	0xbe2db92f	-0.16965173
64	0xbe31aeb9	-0.17351808
65	0x3d8d88f7	0.069108896
66	0x3e278ab5	0.16361506
67	0x3e7e3642	0.24825385
68	0xbd5359fe	-0.051599495
69	0xbe8163ad	-0.2527136
70	0xbeb433e9	-0.35195854
71	0xbd39b14f	-0.04533511
72	0x3e911949	0.28339604
73	0x3ec13dcd	0.37742463
74	0x3e0681c3	0.13135438
75	0xbe3f4e6d	-0.18682261
76	0xbea5414e	-0.32276386
77	0xbe0d3fe1	-0.13793899
78	0x3db36277	0.08759015
79	0x3e3d0611	0.18459345
80	0xbde5d0c3	-0.11221459
81	0xbdfba435	-0.122871794
82	0xbe0c120b	-0.13678758
83	0xbd9a9571	-0.07548035
84	0xbd6bd7d0	-0.05757886
85	0x3c7fd8af	0.015615626
86	0x3d9254d5	0.07145087
87	0x3d91bf76	0.071165964
88	0xbbf2d4a4	-0.0074106026
89	0xbe09b128	-0.13446486
90	0xbe4faef4	-0.20281583
91	0x3ca7586c	0.020427905
92	0x3d3371cc	0.043809697
93	0x3e7870cb	0.24261777
94	0x3dca5a76	0.09880535
95	0x3e9d286f	0.3069491
96	0xba0f696d	-0.0005470727
97	0x3c308366	0.010773515
98	0xbd32831f	-0.043582078
99	0x3df3cc9f	0.11904263
100	0xbe806f4b	-0.2508491
101	0x3ecafa52	0.39644104
102	0xbef13e7c	-0.47117984
103	0x3ee37313	0.44423732
104	0xbeb12395	-0.3459746
105	0x3e6eb153	0.23309831
106	0xbe0b240f	-0.13587974
107	0x3d82d2ad	0.063878395
108	0xbcf12165	-0.029434869
109	0x3cd4f686	0.025996458
110	0xbcae0b6c	-0.02124568
111	0x3bf907a6	0.0075997887
112	0xbeae105e	-0.33996862
113	0xbe421cfa	-0.18956366
114	0xbdaea0e6	-0.08526783
115	0xbd7ff78d	-0.062491942
116	0x3e2156b8	0.15755737
117	0x3e4b1b4d	0.19834633
118	0x3eb305a7	0.3496525
119	0x3e79bb68	0.24387896
120	0x3e8e0891	0.2774091
121	0x3dcac288	0.09900385
122	0x3dcb1d62	0.09917714
123	0xbdf542a7	-0.119756036
124	0xbde59a50	-0.112110734
125	0xbe7dda39	-0.24790277
126	0xbe5f008e	-0.21777555
127	0xbe5a483d	-0.21316619
128	0x3e703408	0.23457348
129	0xbee7c17e	-0.4526481
130	0x3eb24495	0.3481795
131	0xbe22e945	-0.15909298
132	0x3e696be9	0.2279507
133	0xbeb85686	-0.36003512
134	0x3e4aa996	0.19791254
135	0x3e42d663	0.19027095
136	0xbeb0094d	-0.34382096
137	0x3e1b946f	0.15193342
138	0x3d3958f3	0.045250844
139	0xbdce5ff8	-0.10076898
140	0x3e04c175	0.12964423
141	0xbe5cb1fe	-0.21552274
142	0x3e5a6e33	0.213311
143	0xbdad0896	-0.08448903
144	0x3c9fee54	0.019522823
145	0x3e0d7313	0.13813429
146	0xbd9cf984	-0.07664779
147	0xbe7b2b04	-0.24528128
148	0xbdad3f38	-0.08459324
149	0x3eab8aac	0.33504236
150	0x3e90a68d	0.28252068
151	0xbe2b390f	-0.16720985
152	0xbef899b3	-0.48554763
153	0xbd88a820	-0.06672692
154	0x3ed7a46d	0.42117634
155	0x3e9cf9ef	0.30659434
156	0xbe823764	-0.25432885
157	0xbe99f675	-0.30070844
158	0x3d193866	0.0374073
159	0x3e36eb2e	0.17863151
160	0x3dd53277	0.10410016
161	0xbe927e1d	-0.28611842
162	0x3e9646c2	0.2935086
163	0x3b1a26d0	0.002352167
164	0xbec4c8fd	-0.38434592
165	0x3f07ab98	0.52996206
166	0xbea17e53	-0.3154169
167	0xbd50091c	-0.050789937
168	0x3e73a33e	0.2379274
169	0xbe03e55d	-0.12880464
170	0xbdda9cdb	-0.10674449
171	0x3e778774	0.24172765
172	0xbe3c001a	-0.18359414
173	0x3c97cd7c	0.0185306
174	0x3d8ab3b2	0.067725554
175	0xbd04e583	-0.032445442
176	0xbe487217	-0.19574772
177	0x3da2c749	0.07948167
178	0x3c827e5a	0.01592939
179	0x3e99c7b5	0.30035177
180	0x3dc3294b	0.095293604
181	0x3c84211e	0.016129073
182	0xbe8624ad	-0.26199856
183	0xbe5d7488	-0.21626484
184	0xbe283b38	-0.1642884
185	0x3de66fe7	0.112518124
186	0x3e5b8222	0.2143636
187	0x3e5ec4a8	0.21754706
188	0x3d67f47c	0.056629643
189	0xbddcfe1e	-0.107906565
190	0xbdcb3356	-0.09921901
191	0xbdb7539e	-0.089514956
192	0xbe0b8dbf	-0.1362829
193	0xbdc3b5bd	-0.09556148
194	0xbe071567	-0.13191758
195	0xbe10e449	-0.14149584
196	0xbdc840f9	-0.097780176
197	0xbd93ef31	-0.072233565
198	0xbd858063	-0.065186284
199	0xbd907f7e	-0.07055567
200	0xbcb200da	-0.021728922
201	0xbdad6e01	-0.08468247
202	0x3cbdb2a8	0.023156479
203	0x3d90a3d1	0.070624955
204	0x3e105edf	0.1409869
205	0x3e32d134	0.17462617
206	0x3e1502d3	0.14551859
207	0x3e83df1a	0.2575615
208	0x3e181585	0.14851959
209	0x3e551f80	0.20812798
210	0x3e4693d4	0.1939233
211	0x3e12190c	0.14267367
212	0x3e15c9ae	0.14627716
213	0x3d7de125	0.061982293
214	0x3d971c08	0.073783934
215	0xbd360b0c	-0.04444413
216	0xbd4d21cc	-0.05008106
217	0xbe29c456	-0.16578802
218	0xbdf4d3d1	-0.11954463
219	0xbe51f6f0	-0.20504355
220	0xbdb76048	-0.08953911
221	0xbe3f9452	-0.18708923
222	0xbdb86ef9	-0.09005541
223	0xbd8cbcac	-0.06871924
224	0x3d05a0f0	0.032624185
225	0x3dfe564a	0.12418802
226	0xbe9af6d3	-0.30266437
227	0x3e756c30	0.23967052
228	0x3ddcc7a7	0.10780268
229	0xbe10cf40	-0.1414156
230	0xbe26e758	-0.16299188
231	0x3d816a84	0.06319144
232	0x3de044be	0.109506115
233	0x3e1b7668	0.15181887
234	0xbe947405	-0.28994766
235	0x3e81ceeb	0.25353178
236	0xbe81b7b3	-0.25335464
237	0x3e1ec2e9	0.1550404
238	0xbde916e6	-0.11381321
239	0x3d59bd05	0.05315878
240	0xbedaa82f	-0.4270644
241	0xbe09145b	-0.13386671
242	0xbd3448a5	-0.04401459
243	0x3e633576	0.22188362
244	0x3eb2a5ca	0.34892112
245	0x3ec8bd90	0.39207125
246	0x3e885bfd	0.2663268
247	0x3e6f2542	0.23354056
248	0xbd884c8b	-0.066552244
249	0xbe6015fe	-0.2188339
250	0xbeccbd44	-0.39988148
251	0xbec5f9e2	-0.38667208
252	0xbe56a546	-0.20961484
253	0xbd05d910	-0.03267771
254	0x3e21619c	0.15759891
255	0x3ea64953	0.32477817
